…
 load            | 0                   
 lr              | 0.0001              
 metric          | ["NDCG","HR"]       
 num_layers      | 1                   
 num_neg         | 1                   
 num_workers     | 5                   
 optimizer       | Adam                
 random_seed     | 2019                
 time_max        | 256                 
 topk            | [5,10]              
========================================
INFO:root:# cuda devices: 1
INFO:root:Load corpus from ../data/Grocery_and_Gourmet_Food/BaseReader.pkl
INFO:root:#params: 597568
INFO:root:TiSASRec(
  (i_embeddings): Embedding(8457, 64)
  (p_k_embeddings): Embedding(21, 64)
  (p_v_embeddings): Embedding(21, 64)
  (t_k_embeddings): Embedding(257, 64)
  (t_v_embeddings): Embedding(257, 64)
  (Q): Linear(in_features=64, out_features=64, bias=False)
  (K): Linear(in_features=64, out_features=64, bias=False)
  (V): Linear(in_features=64, out_features=64, bias=False)
  (W1): Linear(in_features=64, out_features=64, bias=True)
  (W2): Linear(in_features=64, out_features=64, bias=True)
  (dropout_layer): Dropout(p=0.2, inplace=False)
  (layer_norm): LayerNorm((64,), eps=1e-05, elementwise_affine=True)
)
