…
 num_neg         | 1                   
 num_workers     | 5                   
 optimizer       | Adam                
 random_seed     | 2019                
 result_file     | ../result/TiSASRe...
 suffix          | tada                
 test_length     | 5                   
 time_max        | 512                 
 topk            | [5,10]              
========================================
INFO:root:cuda available: True
INFO:root:# cuda devices: 1
INFO:root:Load corpus from ../data/Grocery_and_Gourmet_Food/tada/5/BaseReader.pkl
INFO:root:#params: 630656
INFO:root:TiSASRec(
  (i_embeddings): Embedding(8457, 64)
  (p_k_embeddings): Embedding(21, 64)
  (p_v_embeddings): Embedding(21, 64)
  (t_k_embeddings): Embedding(513, 64)
  (t_v_embeddings): Embedding(513, 64)
  (transformer_block): ModuleList(
    (0): TimeIntervalTransformerLayer(
      (masked_attn_head): TimeIntervalMultiHeadAttention(
        (v_linear): Linear(in_features=64, out_features=64, bias=True)
        (k_linear): Linear(in_features=64, out_features=64, bias=True)
        (q_linear): Linear(in_features=64, out_features=64, bias=True)
      )
      (layer_norm1): LayerNorm((64,), eps=1e-05, elementwise_affine=True)
      (dropout1): Dropout(p=0, inplace=False)
      (linear1): Linear(in_features=64, out_features=64, bias=True)
      (linear2): Linear(in_features=64, out_features=64, bias=True)
      (layer_norm2): LayerNorm((64,), eps=1e-05, elementwise_affine=True)
      (dropout2): Dropout(p=0, inplace=False)
    )
  )
)
INFO:root:Test Before Training: (HR@10:0.1004,HR@5:0.0480,NDCG@10:0.0451,NDCG@5:0.0284)
INFO:root:Optimizer: Adam
INFO:root:Epoch 1     loss=0.6393 [6.3 s]	 test0=(HR@5:0.2889,NDCG@5:0.1964) test4=(HR@5:0.1680,NDCG@5:0.1028) [3.0 s] 
INFO:root:Save model to ../model/TiSASRec/TiSASRec__Grocery_and_Gourmet_Fo...
…
